…
model = Sequential()
model.add(Conv2D(32,(3,3),input_shape = (60,60,3),activation = 'relu'))
model.add(MaxPooling2D(pool_size = (2,2)))
model.add(Conv2D(32,(3,3),activation = 'relu'))
model.add(MaxPooling2D(pool_size = (2,2)))
model.add(Flatten())
model.add(Dense(64,activation = 'relu'))
model.add(Dense(1,activation = 'sigmoid'))
model.summary()
Model: "sequential_3"
_________________________________________________________________
Layer (type)                 Output Shape              Param #   
=================================================================
conv2d_9 (Conv2D)            (None, 58, 58, 32)        896       
_________________________________________________________________
max_pooling2d_9 (MaxPooling2 (None, 29, 29, 32)        0         
_________________________________________________________________
conv2d_10 (Conv2D)           (None, 27, 27, 32)        9248      
_________________________________________________________________
max_pooling2d_10 (MaxPooling (None, 13, 13, 32)        0         
_________________________________________________________________
flatten_3 (Flatten)          (None, 5408)              0         
_________________________________________________________________
dense_4 (Dense)              (None, 64)                346176    
_________________________________________________________________
dense_5 (Dense)              (None, 1)                 65        
=================================================================
Total params: 356,385
Trainable params: 356,385
Non-trainable params: 0
_________________________________________________________________
model.compile(optimizer = 'adam',
             loss = 'binary_crossentropy',
             metrics =['accuracy'])
from keras.preprocessing.image import ImageDataGenerator
train_datagen = ImageDataGenerator(
…
